 CUDA-version: 11010 (11020), cuDNN: 7.6.5, GPU count: 1  
 OpenCV version: 3.2.0
 0 : compute_capability = 600, cudnn_half = 0, GPU: Tesla P100-PCIE-16GB 
   layer   filters  size/strd(dil)      input                output
   0 conv     32       3 x 3/ 1    672 x 672 x   3 ->  672 x 672 x  32 0.780 BF
   1 conv     64       3 x 3/ 2    672 x 672 x  32 ->  336 x 336 x  64 4.162 BF
   2 conv     64       1 x 1/ 1    336 x 336 x  64 ->  336 x 336 x  64 0.925 BF
   3 route  1 		                           ->  336 x 336 x  64 
   4 conv     64       1 x 1/ 1    336 x 336 x  64 ->  336 x 336 x  64 0.925 BF
   5 conv     32       1 x 1/ 1    336 x 336 x  64 ->  336 x 336 x  32 0.462 BF
   6 conv     64       3 x 3/ 1    336 x 336 x  32 ->  336 x 336 x  64 4.162 BF
   7 Shortcut Layer: 4,  wt = 0, wn = 0, outputs: 336 x 336 x  64 0.007 BF
   8 conv     64       1 x 1/ 1    336 x 336 x  64 ->  336 x 336 x  64 0.925 BF
   9 route  8 2 	                           ->  336 x 336 x 128 
  10 conv     64       1 x 1/ 1    336 x 336 x 128 ->  336 x 336 x  64 1.850 BF
  11 conv    128       3 x 3/ 2    336 x 336 x  64 ->  168 x 168 x 128 4.162 BF
  12 conv     64       1 x 1/ 1    168 x 168 x 128 ->  168 x 168 x  64 0.462 BF
  13 route  11 		                           ->  168 x 168 x 128 
  14 conv     64       1 x 1/ 1    168 x 168 x 128 ->  168 x 168 x  64 0.462 BF
  15 conv     64       1 x 1/ 1    168 x 168 x  64 ->  168 x 168 x  64 0.231 BF
  16 conv     64       3 x 3/ 1    168 x 168 x  64 ->  168 x 168 x  64 2.081 BF
  17 Shortcut Layer: 14,  wt = 0, wn = 0, outputs: 168 x 168 x  64 0.002 BF
  18 conv     64       1 x 1/ 1    168 x 168 x  64 ->  168 x 168 x  64 0.231 BF
  19 conv     64       3 x 3/ 1    168 x 168 x  64 ->  168 x 168 x  64 2.081 BF
  20 Shortcut Layer: 17,  wt = 0, wn = 0, outputs: 168 x 168 x  64 0.002 BF
  21 conv     64       1 x 1/ 1    168 x 168 x  64 ->  168 x 168 x  64 0.231 BF
  22 route  21 12 	                           ->  168 x 168 x 128 
  23 conv    128       1 x 1/ 1    168 x 168 x 128 ->  168 x 168 x 128 0.925 BF
  24 conv    256       3 x 3/ 2    168 x 168 x 128 ->   84 x  84 x 256 4.162 BF
  25 conv    128       1 x 1/ 1     84 x  84 x 256 ->   84 x  84 x 128 0.462 BF
  26 route  24 		                           ->   84 x  84 x 256 
  27 conv    128       1 x 1/ 1     84 x  84 x 256 ->   84 x  84 x 128 0.462 BF
  28 conv    128       1 x 1/ 1     84 x  84 x 128 ->   84 x  84 x 128 0.231 BF
  29 conv    128       3 x 3/ 1     84 x  84 x 128 ->   84 x  84 x 128 2.081 BF
  30 Shortcut Layer: 27,  wt = 0, wn = 0, outputs:  84 x  84 x 128 0.001 BF
  31 conv    128       1 x 1/ 1     84 x  84 x 128 ->   84 x  84 x 128 0.231 BF
  32 conv    128       3 x 3/ 1     84 x  84 x 128 ->   84 x  84 x 128 2.081 BF
  33 Shortcut Layer: 30,  wt = 0, wn = 0, outputs:  84 x  84 x 128 0.001 BF
  34 conv    128       1 x 1/ 1     84 x  84 x 128 ->   84 x  84 x 128 0.231 BF
  35 conv    128       3 x 3/ 1     84 x  84 x 128 ->   84 x  84 x 128 2.081 BF
  36 Shortcut Layer: 33,  wt = 0, wn = 0, outputs:  84 x  84 x 128 0.001 BF
  37 conv    128       1 x 1/ 1     84 x  84 x 128 ->   84 x  84 x 128 0.231 BF
  38 conv    128       3 x 3/ 1     84 x  84 x 128 ->   84 x  84 x 128 2.081 BF
  39 Shortcut Layer: 36,  wt = 0, wn = 0, outputs:  84 x  84 x 128 0.001 BF
  40 conv    128       1 x 1/ 1     84 x  84 x 128 ->   84 x  84 x 128 0.231 BF
  41 conv    128       3 x 3/ 1     84 x  84 x 128 ->   84 x  84 x 128 2.081 BF
  42 Shortcut Layer: 39,  wt = 0, wn = 0, outputs:  84 x  84 x 128 0.001 BF
  43 conv    128       1 x 1/ 1     84 x  84 x 128 ->   84 x  84 x 128 0.231 BF
  44 conv    128       3 x 3/ 1     84 x  84 x 128 ->   84 x  84 x 128 2.081 BF
  45 Shortcut Layer: 42,  wt = 0, wn = 0, outputs:  84 x  84 x 128 0.001 BF
  46 conv    128       1 x 1/ 1     84 x  84 x 128 ->   84 x  84 x 128 0.231 BF
  47 conv    128       3 x 3/ 1     84 x  84 x 128 ->   84 x  84 x 128 2.081 BF
  48 Shortcut Layer: 45,  wt = 0, wn = 0, outputs:  84 x  84 x 128 0.001 BF
  49 conv    128       1 x 1/ 1     84 x  84 x 128 ->   84 x  84 x 128 0.231 BF
  50 conv    128       3 x 3/ 1     84 x  84 x 128 ->   84 x  84 x 128 2.081 BF
  51 Shortcut Layer: 48,  wt = 0, wn = 0, outputs:  84 x  84 x 128 0.001 BF
  52 conv    128       1 x 1/ 1     84 x  84 x 128 ->   84 x  84 x 128 0.231 BF
  53 route  52 25 	                           ->   84 x  84 x 256 
  54 conv    256       1 x 1/ 1     84 x  84 x 256 ->   84 x  84 x 256 0.925 BF
  55 conv    512       3 x 3/ 2     84 x  84 x 256 ->   42 x  42 x 512 4.162 BF
  56 conv    256       1 x 1/ 1     42 x  42 x 512 ->   42 x  42 x 256 0.462 BF
  57 route  55 		                           ->   42 x  42 x 512 
  58 conv    256       1 x 1/ 1     42 x  42 x 512 ->   42 x  42 x 256 0.462 BF
  59 conv    256       1 x 1/ 1     42 x  42 x 256 ->   42 x  42 x 256 0.231 BF
  60 conv    256       3 x 3/ 1     42 x  42 x 256 ->   42 x  42 x 256 2.081 BF
  61 Shortcut Layer: 58,  wt = 0, wn = 0, outputs:  42 x  42 x 256 0.000 BF
  62 conv    256       1 x 1/ 1     42 x  42 x 256 ->   42 x  42 x 256 0.231 BF
  63 conv    256       3 x 3/ 1     42 x  42 x 256 ->   42 x  42 x 256 2.081 BF
  64 Shortcut Layer: 61,  wt = 0, wn = 0, outputs:  42 x  42 x 256 0.000 BF
  65 conv    256       1 x 1/ 1     42 x  42 x 256 ->   42 x  42 x 256 0.231 BF
  66 conv    256       3 x 3/ 1     42 x  42 x 256 ->   42 x  42 x 256 2.081 BF
  67 Shortcut Layer: 64,  wt = 0, wn = 0, outputs:  42 x  42 x 256 0.000 BF
  68 conv    256       1 x 1/ 1     42 x  42 x 256 ->   42 x  42 x 256 0.231 BF
  69 conv    256       3 x 3/ 1     42 x  42 x 256 ->   42 x  42 x 256 2.081 BF
  70 Shortcut Layer: 67,  wt = 0, wn = 0, outputs:  42 x  42 x 256 0.000 BF
  71 conv    256       1 x 1/ 1     42 x  42 x 256 ->   42 x  42 x 256 0.231 BF
  72 conv    256       3 x 3/ 1     42 x  42 x 256 ->   42 x  42 x 256 2.081 BF
  73 Shortcut Layer: 70,  wt = 0, wn = 0, outputs:  42 x  42 x 256 0.000 BF
  74 conv    256       1 x 1/ 1     42 x  42 x 256 ->   42 x  42 x 256 0.231 BF
  75 conv    256       3 x 3/ 1     42 x  42 x 256 ->   42 x  42 x 256 2.081 BF
  76 Shortcut Layer: 73,  wt = 0, wn = 0, outputs:  42 x  42 x 256 0.000 BF
  77 conv    256       1 x 1/ 1     42 x  42 x 256 ->   42 x  42 x 256 0.231 BF
  78 conv    256       3 x 3/ 1     42 x  42 x 256 ->   42 x  42 x 256 2.081 BF
  79 Shortcut Layer: 76,  wt = 0, wn = 0, outputs:  42 x  42 x 256 0.000 BF
  80 conv    256       1 x 1/ 1     42 x  42 x 256 ->   42 x  42 x 256 0.231 BF
  81 conv    256       3 x 3/ 1     42 x  42 x 256 ->   42 x  42 x 256 2.081 BF
  82 Shortcut Layer: 79,  wt = 0, wn = 0, outputs:  42 x  42 x 256 0.000 BF
  83 conv    256       1 x 1/ 1     42 x  42 x 256 ->   42 x  42 x 256 0.231 BF
  84 route  83 56 	                           ->   42 x  42 x 512 
  85 conv    512       1 x 1/ 1     42 x  42 x 512 ->   42 x  42 x 512 0.925 BF
  86 conv   1024       3 x 3/ 2     42 x  42 x 512 ->   21 x  21 x1024 4.162 BF
  87 conv    512       1 x 1/ 1     21 x  21 x1024 ->   21 x  21 x 512 0.462 BF
  88 route  86 		                           ->   21 x  21 x1024 
  89 conv    512       1 x 1/ 1     21 x  21 x1024 ->   21 x  21 x 512 0.462 BF
  90 conv    512       1 x 1/ 1     21 x  21 x 512 ->   21 x  21 x 512 0.231 BF
  91 conv    512       3 x 3/ 1     21 x  21 x 512 ->   21 x  21 x 512 2.081 BF
  92 Shortcut Layer: 89,  wt = 0, wn = 0, outputs:  21 x  21 x 512 0.000 BF
  93 conv    512       1 x 1/ 1     21 x  21 x 512 ->   21 x  21 x 512 0.231 BF
  94 conv    512       3 x 3/ 1     21 x  21 x 512 ->   21 x  21 x 512 2.081 BF
  95 Shortcut Layer: 92,  wt = 0, wn = 0, outputs:  21 x  21 x 512 0.000 BF
  96 conv    512       1 x 1/ 1     21 x  21 x 512 ->   21 x  21 x 512 0.231 BF
  97 conv    512       3 x 3/ 1     21 x  21 x 512 ->   21 x  21 x 512 2.081 BF
  98 Shortcut Layer: 95,  wt = 0, wn = 0, outputs:  21 x  21 x 512 0.000 BF
  99 conv    512       1 x 1/ 1     21 x  21 x 512 ->   21 x  21 x 512 0.231 BF
 100 conv    512       3 x 3/ 1     21 x  21 x 512 ->   21 x  21 x 512 2.081 BF
 101 Shortcut Layer: 98,  wt = 0, wn = 0, outputs:  21 x  21 x 512 0.000 BF
 102 conv    512       1 x 1/ 1     21 x  21 x 512 ->   21 x  21 x 512 0.231 BF
 103 route  102 87 	                           ->   21 x  21 x1024 
 104 conv   1024       1 x 1/ 1     21 x  21 x1024 ->   21 x  21 x1024 0.925 BF
 105 conv    512       1 x 1/ 1     21 x  21 x1024 ->   21 x  21 x 512 0.462 BF
 106 conv   1024       3 x 3/ 1     21 x  21 x 512 ->   21 x  21 x1024 4.162 BF
 107 conv    512       1 x 1/ 1     21 x  21 x1024 ->   21 x  21 x 512 0.462 BF
 108 max                5x 5/ 1     21 x  21 x 512 ->   21 x  21 x 512 0.006 BF
 109 route  107 		                           ->   21 x  21 x 512 
 110 max                9x 9/ 1     21 x  21 x 512 ->   21 x  21 x 512 0.018 BF
 111 route  107 		                           ->   21 x  21 x 512 
 112 max               13x13/ 1     21 x  21 x 512 ->   21 x  21 x 512 0.038 BF
 113 route  112 110 108 107 	                   ->   21 x  21 x2048 
 114 conv    512       1 x 1/ 1     21 x  21 x2048 ->   21 x  21 x 512 0.925 BF
 115 conv   1024       3 x 3/ 1     21 x  21 x 512 ->   21 x  21 x1024 4.162 BF
 116 conv    512       1 x 1/ 1     21 x  21 x1024 ->   21 x  21 x 512 0.462 BF
 117 conv    256       1 x 1/ 1     21 x  21 x 512 ->   21 x  21 x 256 0.116 BF
 118 upsample                 2x    21 x  21 x 256 ->   42 x  42 x 256
 119 route  85 		                           ->   42 x  42 x 512 
 120 conv    256       1 x 1/ 1     42 x  42 x 512 ->   42 x  42 x 256 0.462 BF
 121 route  120 118 	                           ->   42 x  42 x 512 
 122 conv    256       1 x 1/ 1     42 x  42 x 512 ->   42 x  42 x 256 0.462 BF
 123 conv    512       3 x 3/ 1     42 x  42 x 256 ->   42 x  42 x 512 4.162 BF
 124 conv    256       1 x 1/ 1     42 x  42 x 512 ->   42 x  42 x 256 0.462 BF
 125 conv    512       3 x 3/ 1     42 x  42 x 256 ->   42 x  42 x 512 4.162 BF
 126 conv    256       1 x 1/ 1     42 x  42 x 512 ->   42 x  42 x 256 0.462 BF
 127 conv    128       1 x 1/ 1     42 x  42 x 256 ->   42 x  42 x 128 0.116 BF
 128 upsample                 2x    42 x  42 x 128 ->   84 x  84 x 128
 129 route  54 		                           ->   84 x  84 x 256 
 130 conv    128       1 x 1/ 1     84 x  84 x 256 ->   84 x  84 x 128 0.462 BF
 131 route  130 128 	                           ->   84 x  84 x 256 
 132 conv    128       1 x 1/ 1     84 x  84 x 256 ->   84 x  84 x 128 0.462 BF
 133 conv    256       3 x 3/ 1     84 x  84 x 128 ->   84 x  84 x 256 4.162 BF
 134 conv    128       1 x 1/ 1     84 x  84 x 256 ->   84 x  84 x 128 0.462 BF
 135 conv    256       3 x 3/ 1     84 x  84 x 128 ->   84 x  84 x 256 4.162 BF
 136 conv    128       1 x 1/ 1     84 x  84 x 256 ->   84 x  84 x 128 0.462 BF
 137 conv    256       3 x 3/ 1     84 x  84 x 128 ->   84 x  84 x 256 4.162 BF
 138 conv    291       1 x 1/ 1     84 x  84 x 256 ->   84 x  84 x 291 1.051 BF
 139 yolo
[yolo] params: iou loss: ciou (4), iou_norm: 0.07, obj_norm: 1.00, cls_norm: 1.00, delta_norm: 1.00, scale_x_y: 1.20
 140 route  136 		                           ->   84 x  84 x 128 
 141 conv    256       3 x 3/ 2     84 x  84 x 128 ->   42 x  42 x 256 1.040 BF
 142 route  141 126 	                           ->   42 x  42 x 512 
 143 conv    256       1 x 1/ 1     42 x  42 x 512 ->   42 x  42 x 256 0.462 BF
 144 conv    512       3 x 3/ 1     42 x  42 x 256 ->   42 x  42 x 512 4.162 BF
 145 conv    256       1 x 1/ 1     42 x  42 x 512 ->   42 x  42 x 256 0.462 BF
 146 conv    512       3 x 3/ 1     42 x  42 x 256 ->   42 x  42 x 512 4.162 BF
 147 conv    256       1 x 1/ 1     42 x  42 x 512 ->   42 x  42 x 256 0.462 BF
 148 conv    512       3 x 3/ 1     42 x  42 x 256 ->   42 x  42 x 512 4.162 BF
 149 conv    291       1 x 1/ 1     42 x  42 x 512 ->   42 x  42 x 291 0.526 BF
 150 yolo
[yolo] params: iou loss: ciou (4), iou_norm: 0.07, obj_norm: 1.00, cls_norm: 1.00, delta_norm: 1.00, scale_x_y: 1.10
 151 route  147 		                           ->   42 x  42 x 256 
 152 conv    512       3 x 3/ 2     42 x  42 x 256 ->   21 x  21 x 512 1.040 BF
 153 route  152 116 	                           ->   21 x  21 x1024 
 154 conv    512       1 x 1/ 1     21 x  21 x1024 ->   21 x  21 x 512 0.462 BF
 155 conv   1024       3 x 3/ 1     21 x  21 x 512 ->   21 x  21 x1024 4.162 BF
 156 conv    512       1 x 1/ 1     21 x  21 x1024 ->   21 x  21 x 512 0.462 BF
 157 conv   1024       3 x 3/ 1     21 x  21 x 512 ->   21 x  21 x1024 4.162 BF
 158 conv    512       1 x 1/ 1     21 x  21 x1024 ->   21 x  21 x 512 0.462 BF
 159 conv   1024       3 x 3/ 1     21 x  21 x 512 ->   21 x  21 x1024 4.162 BF
 160 conv    291       1 x 1/ 1     21 x  21 x1024 ->   21 x  21 x 291 0.263 BF
 161 yolo
[yolo] params: iou loss: ciou (4), iou_norm: 0.07, obj_norm: 1.00, cls_norm: 1.00, delta_norm: 1.00, scale_x_y: 1.05
Total BFLOPS 157.154 
avg_outputs = 1309274 
 Allocate additional workspace_size = 52.43 MB 
 0 : compute_capability = 600, cudnn_half = 0, GPU: Tesla P100-PCIE-16GB 
   layer   filters  size/strd(dil)      input                output
   0 conv     32       3 x 3/ 1    672 x 672 x   3 ->  672 x 672 x  32 0.780 BF
   1 conv     64       3 x 3/ 2    672 x 672 x  32 ->  336 x 336 x  64 4.162 BF
   2 conv     64       1 x 1/ 1    336 x 336 x  64 ->  336 x 336 x  64 0.925 BF
   3 route  1 		                           ->  336 x 336 x  64 
   4 conv     64       1 x 1/ 1    336 x 336 x  64 ->  336 x 336 x  64 0.925 BF
   5 conv     32       1 x 1/ 1    336 x 336 x  64 ->  336 x 336 x  32 0.462 BF
   6 conv     64       3 x 3/ 1    336 x 336 x  32 ->  336 x 336 x  64 4.162 BF
   7 Shortcut Layer: 4,  wt = 0, wn = 0, outputs: 336 x 336 x  64 0.007 BF
   8 conv     64       1 x 1/ 1    336 x 336 x  64 ->  336 x 336 x  64 0.925 BF
   9 route  8 2 	                           ->  336 x 336 x 128 
  10 conv     64       1 x 1/ 1    336 x 336 x 128 ->  336 x 336 x  64 1.850 BF
  11 conv    128       3 x 3/ 2    336 x 336 x  64 ->  168 x 168 x 128 4.162 BF
  12 conv     64       1 x 1/ 1    168 x 168 x 128 ->  168 x 168 x  64 0.462 BF
  13 route  11 		                           ->  168 x 168 x 128 
  14 conv     64       1 x 1/ 1    168 x 168 x 128 ->  168 x 168 x  64 0.462 BF
  15 conv     64       1 x 1/ 1    168 x 168 x  64 ->  168 x 168 x  64 0.231 BF
  16 conv     64       3 x 3/ 1    168 x 168 x  64 ->  168 x 168 x  64 2.081 BF
  17 Shortcut Layer: 14,  wt = 0, wn = 0, outputs: 168 x 168 x  64 0.002 BF
  18 conv     64       1 x 1/ 1    168 x 168 x  64 ->  168 x 168 x  64 0.231 BF
  19 conv     64       3 x 3/ 1    168 x 168 x  64 ->  168 x 168 x  64 2.081 BF
  20 Shortcut Layer: 17,  wt = 0, wn = 0, outputs: 168 x 168 x  64 0.002 BF
  21 conv     64       1 x 1/ 1    168 x 168 x  64 ->  168 x 168 x  64 0.231 BF
  22 route  21 12 	                           ->  168 x 168 x 128 
  23 conv    128       1 x 1/ 1    168 x 168 x 128 ->  168 x 168 x 128 0.925 BF
  24 conv    256       3 x 3/ 2    168 x 168 x 128 ->   84 x  84 x 256 4.162 BF
  25 conv    128       1 x 1/ 1     84 x  84 x 256 ->   84 x  84 x 128 0.462 BF
  26 route  24 		                           ->   84 x  84 x 256 
  27 conv    128       1 x 1/ 1     84 x  84 x 256 ->   84 x  84 x 128 0.462 BF
  28 conv    128       1 x 1/ 1     84 x  84 x 128 ->   84 x  84 x 128 0.231 BF
  29 conv    128       3 x 3/ 1     84 x  84 x 128 ->   84 x  84 x 128 2.081 BF
  30 Shortcut Layer: 27,  wt = 0, wn = 0, outputs:  84 x  84 x 128 0.001 BF
  31 conv    128       1 x 1/ 1     84 x  84 x 128 ->   84 x  84 x 128 0.231 BF
  32 conv    128       3 x 3/ 1     84 x  84 x 128 ->   84 x  84 x 128 2.081 BF
  33 Shortcut Layer: 30,  wt = 0, wn = 0, outputs:  84 x  84 x 128 0.001 BF
  34 conv    128       1 x 1/ 1     84 x  84 x 128 ->   84 x  84 x 128 0.231 BF
  35 conv    128       3 x 3/ 1     84 x  84 x 128 ->   84 x  84 x 128 2.081 BF
  36 Shortcut Layer: 33,  wt = 0, wn = 0, outputs:  84 x  84 x 128 0.001 BF
  37 conv    128       1 x 1/ 1     84 x  84 x 128 ->   84 x  84 x 128 0.231 BF
  38 conv    128       3 x 3/ 1     84 x  84 x 128 ->   84 x  84 x 128 2.081 BF
  39 Shortcut Layer: 36,  wt = 0, wn = 0, outputs:  84 x  84 x 128 0.001 BF
  40 conv    128       1 x 1/ 1     84 x  84 x 128 ->   84 x  84 x 128 0.231 BF
  41 conv    128       3 x 3/ 1     84 x  84 x 128 ->   84 x  84 x 128 2.081 BF
  42 Shortcut Layer: 39,  wt = 0, wn = 0, outputs:  84 x  84 x 128 0.001 BF
  43 conv    128       1 x 1/ 1     84 x  84 x 128 ->   84 x  84 x 128 0.231 BF
  44 conv    128       3 x 3/ 1     84 x  84 x 128 ->   84 x  84 x 128 2.081 BF
  45 Shortcut Layer: 42,  wt = 0, wn = 0, outputs:  84 x  84 x 128 0.001 BF
  46 conv    128       1 x 1/ 1     84 x  84 x 128 ->   84 x  84 x 128 0.231 BF
  47 conv    128       3 x 3/ 1     84 x  84 x 128 ->   84 x  84 x 128 2.081 BF
  48 Shortcut Layer: 45,  wt = 0, wn = 0, outputs:  84 x  84 x 128 0.001 BF
  49 conv    128       1 x 1/ 1     84 x  84 x 128 ->   84 x  84 x 128 0.231 BF
  50 conv    128       3 x 3/ 1     84 x  84 x 128 ->   84 x  84 x 128 2.081 BF
  51 Shortcut Layer: 48,  wt = 0, wn = 0, outputs:  84 x  84 x 128 0.001 BF
  52 conv    128       1 x 1/ 1     84 x  84 x 128 ->   84 x  84 x 128 0.231 BF
  53 route  52 25 	                           ->   84 x  84 x 256 
  54 conv    256       1 x 1/ 1     84 x  84 x 256 ->   84 x  84 x 256 0.925 BF
  55 conv    512       3 x 3/ 2     84 x  84 x 256 ->   42 x  42 x 512 4.162 BF
  56 conv    256       1 x 1/ 1     42 x  42 x 512 ->   42 x  42 x 256 0.462 BF
  57 route  55 		                           ->   42 x  42 x 512 
  58 conv    256       1 x 1/ 1     42 x  42 x 512 ->   42 x  42 x 256 0.462 BF
  59 conv    256       1 x 1/ 1     42 x  42 x 256 ->   42 x  42 x 256 0.231 BF
  60 conv    256       3 x 3/ 1     42 x  42 x 256 ->   42 x  42 x 256 2.081 BF
  61 Shortcut Layer: 58,  wt = 0, wn = 0, outputs:  42 x  42 x 256 0.000 BF
  62 conv    256       1 x 1/ 1     42 x  42 x 256 ->   42 x  42 x 256 0.231 BF
  63 conv    256       3 x 3/ 1     42 x  42 x 256 ->   42 x  42 x 256 2.081 BF
  64 Shortcut Layer: 61,  wt = 0, wn = 0, outputs:  42 x  42 x 256 0.000 BF
  65 conv    256       1 x 1/ 1     42 x  42 x 256 ->   42 x  42 x 256 0.231 BF
  66 conv    256       3 x 3/ 1     42 x  42 x 256 ->   42 x  42 x 256 2.081 BF
  67 Shortcut Layer: 64,  wt = 0, wn = 0, outputs:  42 x  42 x 256 0.000 BF
  68 conv    256       1 x 1/ 1     42 x  42 x 256 ->   42 x  42 x 256 0.231 BF
  69 conv    256       3 x 3/ 1     42 x  42 x 256 ->   42 x  42 x 256 2.081 BF
  70 Shortcut Layer: 67,  wt = 0, wn = 0, outputs:  42 x  42 x 256 0.000 BF
  71 conv    256       1 x 1/ 1     42 x  42 x 256 ->   42 x  42 x 256 0.231 BF
  72 conv    256       3 x 3/ 1     42 x  42 x 256 ->   42 x  42 x 256 2.081 BF
  73 Shortcut Layer: 70,  wt = 0, wn = 0, outputs:  42 x  42 x 256 0.000 BF
  74 conv    256       1 x 1/ 1     42 x  42 x 256 ->   42 x  42 x 256 0.231 BF
  75 conv    256       3 x 3/ 1     42 x  42 x 256 ->   42 x  42 x 256 2.081 BF
  76 Shortcut Layer: 73,  wt = 0, wn = 0, outputs:  42 x  42 x 256 0.000 BF
  77 conv    256       1 x 1/ 1     42 x  42 x 256 ->   42 x  42 x 256 0.231 BF
  78 conv    256       3 x 3/ 1     42 x  42 x 256 ->   42 x  42 x 256 2.081 BF
  79 Shortcut Layer: 76,  wt = 0, wn = 0, outputs:  42 x  42 x 256 0.000 BF
  80 conv    256       1 x 1/ 1     42 x  42 x 256 ->   42 x  42 x 256 0.231 BF
  81 conv    256       3 x 3/ 1     42 x  42 x 256 ->   42 x  42 x 256 2.081 BF
  82 Shortcut Layer: 79,  wt = 0, wn = 0, outputs:  42 x  42 x 256 0.000 BF
  83 conv    256       1 x 1/ 1     42 x  42 x 256 ->   42 x  42 x 256 0.231 BF
  84 route  83 56 	                           ->   42 x  42 x 512 
  85 conv    512       1 x 1/ 1     42 x  42 x 512 ->   42 x  42 x 512 0.925 BF
  86 conv   1024       3 x 3/ 2     42 x  42 x 512 ->   21 x  21 x1024 4.162 BF
  87 conv    512       1 x 1/ 1     21 x  21 x1024 ->   21 x  21 x 512 0.462 BF
  88 route  86 		                           ->   21 x  21 x1024 
  89 conv    512       1 x 1/ 1     21 x  21 x1024 ->   21 x  21 x 512 0.462 BF
  90 conv    512       1 x 1/ 1     21 x  21 x 512 ->   21 x  21 x 512 0.231 BF
  91 conv    512       3 x 3/ 1     21 x  21 x 512 ->   21 x  21 x 512 2.081 BF
  92 Shortcut Layer: 89,  wt = 0, wn = 0, outputs:  21 x  21 x 512 0.000 BF
  93 conv    512       1 x 1/ 1     21 x  21 x 512 ->   21 x  21 x 512 0.231 BF
  94 conv    512       3 x 3/ 1     21 x  21 x 512 ->   21 x  21 x 512 2.081 BF
  95 Shortcut Layer: 92,  wt = 0, wn = 0, outputs:  21 x  21 x 512 0.000 BF
  96 conv    512       1 x 1/ 1     21 x  21 x 512 ->   21 x  21 x 512 0.231 BF
  97 conv    512       3 x 3/ 1     21 x  21 x 512 ->   21 x  21 x 512 2.081 BF
  98 Shortcut Layer: 95,  wt = 0, wn = 0, outputs:  21 x  21 x 512 0.000 BF
  99 conv    512       1 x 1/ 1     21 x  21 x 512 ->   21 x  21 x 512 0.231 BF
 100 conv    512       3 x 3/ 1     21 x  21 x 512 ->   21 x  21 x 512 2.081 BF
 101 Shortcut Layer: 98,  wt = 0, wn = 0, outputs:  21 x  21 x 512 0.000 BF
 102 conv    512       1 x 1/ 1     21 x  21 x 512 ->   21 x  21 x 512 0.231 BF
 103 route  102 87 	                           ->   21 x  21 x1024 
 104 conv   1024       1 x 1/ 1     21 x  21 x1024 ->   21 x  21 x1024 0.925 BF
 105 conv    512       1 x 1/ 1     21 x  21 x1024 ->   21 x  21 x 512 0.462 BF
 106 conv   1024       3 x 3/ 1     21 x  21 x 512 ->   21 x  21 x1024 4.162 BF
 107 conv    512       1 x 1/ 1     21 x  21 x1024 ->   21 x  21 x 512 0.462 BF
 108 max                5x 5/ 1     21 x  21 x 512 ->   21 x  21 x 512 0.006 BF
 109 route  107 		                           ->   21 x  21 x 512 
 110 max                9x 9/ 1     21 x  21 x 512 ->   21 x  21 x 512 0.018 BF
 111 route  107 		                           ->   21 x  21 x 512 
 112 max               13x13/ 1     21 x  21 x 512 ->   21 x  21 x 512 0.038 BF
 113 route  112 110 108 107 	                   ->   21 x  21 x2048 
 114 conv    512       1 x 1/ 1     21 x  21 x2048 ->   21 x  21 x 512 0.925 BF
 115 conv   1024       3 x 3/ 1     21 x  21 x 512 ->   21 x  21 x1024 4.162 BF
 116 conv    512       1 x 1/ 1     21 x  21 x1024 ->   21 x  21 x 512 0.462 BF
 117 conv    256       1 x 1/ 1     21 x  21 x 512 ->   21 x  21 x 256 0.116 BF
 118 upsample                 2x    21 x  21 x 256 ->   42 x  42 x 256
 119 route  85 		                           ->   42 x  42 x 512 
 120 conv    256       1 x 1/ 1     42 x  42 x 512 ->   42 x  42 x 256 0.462 BF
 121 route  120 118 	                           ->   42 x  42 x 512 
 122 conv    256       1 x 1/ 1     42 x  42 x 512 ->   42 x  42 x 256 0.462 BF
 123 conv    512       3 x 3/ 1     42 x  42 x 256 ->   42 x  42 x 512 4.162 BF
 124 conv    256       1 x 1/ 1     42 x  42 x 512 ->   42 x  42 x 256 0.462 BF
 125 conv    512       3 x 3/ 1     42 x  42 x 256 ->   42 x  42 x 512 4.162 BF
 126 conv    256       1 x 1/ 1     42 x  42 x 512 ->   42 x  42 x 256 0.462 BF
 127 conv    128       1 x 1/ 1     42 x  42 x 256 ->   42 x  42 x 128 0.116 BF
 128 upsample                 2x    42 x  42 x 128 ->   84 x  84 x 128
 129 route  54 		                           ->   84 x  84 x 256 
 130 conv    128       1 x 1/ 1     84 x  84 x 256 ->   84 x  84 x 128 0.462 BF
 131 route  130 128 	                           ->   84 x  84 x 256 
 132 conv    128       1 x 1/ 1     84 x  84 x 256 ->   84 x  84 x 128 0.462 BF
 133 conv    256       3 x 3/ 1     84 x  84 x 128 ->   84 x  84 x 256 4.162 BF
 134 conv    128       1 x 1/ 1     84 x  84 x 256 ->   84 x  84 x 128 0.462 BF
 135 conv    256       3 x 3/ 1     84 x  84 x 128 ->   84 x  84 x 256 4.162 BF
 136 conv    128       1 x 1/ 1     84 x  84 x 256 ->   84 x  84 x 128 0.462 BF
 137 conv    256       3 x 3/ 1     84 x  84 x 128 ->   84 x  84 x 256 4.162 BF
 138 conv    291       1 x 1/ 1     84 x  84 x 256 ->   84 x  84 x 291 1.051 BF
 139 yolo
[yolo] params: iou loss: ciou (4), iou_norm: 0.07, obj_norm: 1.00, cls_norm: 1.00, delta_norm: 1.00, scale_x_y: 1.20
 140 route  136 		                           ->   84 x  84 x 128 
 141 conv    256       3 x 3/ 2     84 x  84 x 128 ->   42 x  42 x 256 1.040 BF
 142 route  141 126 	                           ->   42 x  42 x 512 
 143 conv    256       1 x 1/ 1     42 x  42 x 512 ->   42 x  42 x 256 0.462 BF
 144 conv    512       3 x 3/ 1     42 x  42 x 256 ->   42 x  42 x 512 4.162 BF
 145 conv    256       1 x 1/ 1     42 x  42 x 512 ->   42 x  42 x 256 0.462 BF
 146 conv    512       3 x 3/ 1     42 x  42 x 256 ->   42 x  42 x 512 4.162 BF
 147 conv    256       1 x 1/ 1     42 x  42 x 512 ->   42 x  42 x 256 0.462 BF
 148 conv    512       3 x 3/ 1     42 x  42 x 256 ->   42 x  42 x 512 4.162 BF
 149 conv    291       1 x 1/ 1     42 x  42 x 512 ->   42 x  42 x 291 0.526 BF
 150 yolo
[yolo] params: iou loss: ciou (4), iou_norm: 0.07, obj_norm: 1.00, cls_norm: 1.00, delta_norm: 1.00, scale_x_y: 1.10
 151 route  147 		                           ->   42 x  42 x 256 
 152 conv    512       3 x 3/ 2     42 x  42 x 256 ->   21 x  21 x 512 1.040 BF
 153 route  152 116 	                           ->   21 x  21 x1024 
 154 conv    512       1 x 1/ 1     21 x  21 x1024 ->   21 x  21 x 512 0.462 BF
 155 conv   1024       3 x 3/ 1     21 x  21 x 512 ->   21 x  21 x1024 4.162 BF
 156 conv    512       1 x 1/ 1     21 x  21 x1024 ->   21 x  21 x 512 0.462 BF
 157 conv   1024       3 x 3/ 1     21 x  21 x 512 ->   21 x  21 x1024 4.162 BF
 158 conv    512       1 x 1/ 1     21 x  21 x1024 ->   21 x  21 x 512 0.462 BF
 159 conv   1024       3 x 3/ 1     21 x  21 x 512 ->   21 x  21 x1024 4.162 BF
 160 conv    291       1 x 1/ 1     21 x  21 x1024 ->   21 x  21 x 291 0.263 BF
 161 yolo
[yolo] params: iou loss: ciou (4), iou_norm: 0.07, obj_norm: 1.00, cls_norm: 1.00, delta_norm: 1.00, scale_x_y: 1.05
Total BFLOPS 157.154 
avg_outputs = 1309274 
 Allocate additional workspace_size = 65.03 MB 
Loading weights from yolov4-obj_5500_r.weights... Prepare additional network for mAP calculation...
net.optimized_memory = 0 
mini_batch = 1, batch = 32, time_steps = 1, train = 0 
…
